server/app/visualizers/tsne/adult.pth (torch_old, 198545 bytes, 20 tensors)

dense1.weight f4 [128, 108]
00000000: 078d 533c 1ace 48bc 9b1c b9bc d29d 263c
00000010: 34a2 cabd 34d0 483c d541 05bd 5e6f c13c
00000020: 956a d7bb 6f11 093e 088c 493d aad0 333c
00000030: 514c 043b ef3e 673c 11ac bebc ab6e 2fbd
00000040: 8dc6 c0bc 999d b23c 31ad 293c 1371 c93c
00000050: 25fa 3cbc 1cb5 a23c 35fc 0f3c 1311 0bbd
00000060: 756f 10be 452b 91be 9e6e d13d 391b 0cbd
00000070: 5c9d 833d ac78 11bd 024c 17bc 1100 513d
00000080: 2ce5 86bd 7535 0dbd af38 eb3c bca3 f0bc
00000090: 22e3 bd3d 1c3f 833d 506a d63b 6cc9 5abb
000000a0: ca4f 1ebd a04b f0bd 6f3e d83d 4fb9 ab3d
000000b0: 42e6 533d 50f9 c43d d5c7 f8bb 5985 d23d
000000c0: 3941 c33c 7e65 5bbd eb90 7ebc 9e1e 1c3d
000000d0: af16 083d 8e7f 253d f77a ce3c 3c72 993d
000000e0: 973a 31be cc00 da3d 1639 cdbd f79b e23c
000000f0: a8cc 59bd ae78 a43d d24a f13d 16e2 593d
00000100: e6a0 c03d 1d5c 6bbc f075 4bbd e8c4 e4bd
00000110: cbaf 6b3c 4197 77bd 9451 8b3d d523 3d3d
00000120: 99eb 6ebd 7505 503d 0c37 ce3c 847a f43d
00000130: fce9 99bc e16d e13c 0a95 d63d c628 9f3b
00000140: 65de 4dbe ba1c 773c 4ee8 6a3d 4ff1 853d
00000150: 3ce1 663d f36d 493e 516e 8f3d 913c 0ebd
00000160: c693 703c 8a64 67bd 684e 8f3c 9692 dc3c
00000170: a285 923d 438e 193d d478 99bd 196b 79bb
00000180: b549 febd fe85 e93d a334 613d 3e73 6c3e
00000190: f220 3a3d c248 c13d 7519 4f3c 49a1 a03c
000001a0: 70c4 233d db02 c33c f8c0 23be 80a5 4f3c
000001b0: e738 47bc 40a9 4f3c e356 a6bd 4fd1 a7bc
000001c0: ced9 69bd 82dd 033c f0c7 25be 6f90 9b3c
000001d0: ed75 6f3c fd28 c7bd e835 32bc ffa1 d53d
000001e0: fae6 6f3d 9eca a0bb 0fd7 6bbd 8560 963c
000001f0: 68f4 d53c eb57 733d 8ba6 95bc dffc 613c
00000200: 7122 25bd 58db db3c b121 26bd ccb2 c83d
00000210: 829e 0b3d fc33 c6bc 6a18 3cbd 6673 40bd
00000220: cdf9 e1bd 6b10 103e 84d7 273d 21e0 0ebe
00000230: 4bd8 d03d ac10 603c 0928 c7bd eeaa 96bd
00000240: 67bc d8bd 2bbc f3bc 0653 a7bd f1d8 37bd
00000250: 6ad4 d0bc ffd7 48be 8746 933d cebb db3c
00000260: 8824 973d b370 063e 099e a73c 214c dd3d
00000270: 5ed9 7b3d d643 32bd c008 80ba 041a 893d
00000280: d3aa 513a 213e 17bb 3486 683d 15ff 07bd
00000290: bc43 8ebc 8f1b 3dbd 53de 33be a869 343d
000002a0: ead7 713c 9dec 14bc 9e7e 0a3d 4cf8 283d
000002b0: f0fa c03d 8ebb a0bd b3e0 6b39 b2f2 49be
000002c0: 07a3 c1bc 5e16 b2bd a969 37bb a700 013c
000002d0: 81cd 06bb f499 e53d 384e 2d3d 44a2 e6bc
000002e0: 73b1 85bd c7f7 ab3d b143 543c 3b36 833d
000002f0: b4f8 84bd 3e0f bfbc 5778 1fbd 128f 02bd
00000300: b4ab 85bd a129 11bd f336 e93c a67d 26bc
00000310: 3c36 b53c 518d 813b 035c 4d3e 7a39 493d
00000320: 139b 463d 06f1 3abe f359 e4bd 5704 fa3d
00000330: 85c1 593d 7e44 6c3b 3bdb 0b3d e996 1cbd
00000340: f5fa 093e f6a4 8fbe a98b b53d 22f0 91bd
00000350: d166 d3bc a36f 173c 85c0 b6bd c8ba 613d
00000360: 05d8 1abd 485d fcbc fde1 00be 9bd0 25bc
00000370: 4c26 87bd 1289 edbc 5e23 90bd 2a87 5fbc
00000380: 233c f5bc a6b1 013d 0a92 cc3d 8523 133d
00000390: b053 1cbe 5fce b83b 054a 683d 968d 133d
000003a0: 6ff1 b83d 5e6a 6e3d 5be1 2c3c 2667 f13d
000003b0: 1ce6 413d d51f b83b d019 06be 4632 83bd
000003c0: a7af 183c 85e0 d7bd b5d8 503d 2507 14be
000003d0: bc48 f0bd 0a5b 26be dd00 aebc d535 8d3c
000003e0: 2604 f5bd 8277 283d cf76 1dbe 6d5e 5b3d
000003f0: d22b a43d b2f6 67bc 02bd 11be 168f e83d
0.0129120415 -0.01225617 -0.022596648 0.010169463 -0.09894219 0.012256671 -0.032533485 0.023612674
-0.006573985 0.13385557 0.04920581 0.010975042 0.002018709 0.014114126 -0.023275407 -0.04283015
-0.023532176 0.021803664 0.010356233 0.02459005 -0.0115342485 0.01986175 0.008788158 -0.03395183
-0.14105017 -0.28353325 0.10226177 -0.03420565 0.06426498 -0.035515472 -0.00923443 0.051025454
-0.0658668 -0.03447481 0.028713552 -0.02937495 0.09271838 0.064085215 0.006543435 -0.0033384217
-0.03865031 -0.11733174 0.10558783 0.08384954 0.051733263 0.09617865 -0.007592181 0.1027934
0.023834812 -0.053563587 -0.015537481 0.038115136 0.033224758 0.04040485 0.025205119 0.074924916
-0.17307507 0.10644683 -0.10020654 0.02766226 -0.05317369 0.0803083 0.11781849 0.053194128
0.09405689 -0.014365223 -0.04967302 -0.111703694 0.014385174 -0.06044698 0.06802669 0.04617675
-0.058330152 0.050786454 0.025172733 0.119374305 -0.01878833 0.027518215 0.10477646 0.0048571555
-0.20104368 0.015082533 0.05735045 0.065401666 0.056367144 0.19670849 0.07003463 -0.03472573
0.014683669 -0.056492366 0.017493442 0.026925366 0.07154395 0.037489187 -0.07493749 -0.003805822
-0.12416402 0.1140251 0.05498184 0.23090836 0.045441575 0.094377056 0.012640347 0.019608157
0.03998226 0.023805073 -0.1599158 0.012673736 -0.012159563 0.01267463 -0.08122041 -0.020485548
-0.05709248 0.008048417 -0.16189551 0.01898977 0.014615518 -0.09724615 -0.01087711 0.10431289
0.058569886 -0.0049069664 -0.057578143 0.018356571 0.026117519 0.059410017 -0.01826789 0.013793199
-0.04031605 0.02683799 -0.040559474 0.09799728 0.03408671 -0.02419471 -0.04592172 -0.046985053
-0.11033974 0.14068763 0.040977016 -0.13952686 0.101975046 0.01367585 -0.09724433 -0.07356821
-0.1058281 -0.029752811 -0.08170132 -0.044884626 -0.025491912 -0.19613646 0.071911864 0.02682295
0.07380015 0.13128929 0.0204611 0.10805536 0.061486594 -0.043521725 -0.0009768233 0.06694415
0.0007998172 -0.0023077803 0.05676861 -0.03320225 -0.017366283 -0.04616886 -0.17565279 0.044046074
0.014760951 -0.009089616 0.033812158 0.04125242 0.094228625 -0.07848273 0.00022495053 -0.19721487
-0.023637308 -0.086956725 -0.0027986562 0.007873691 -0.0020569267 0.11211005 0.042310923 -0.028153546
-0.065279864 0.08396869 0.012955592 0.06406828 -0.06492749 -0.023322698 -0.038933124 -0.031874724
-0.065268904 -0.03544009 0.028468585 -0.010161793 0.022120588 0.003953614 0.20054631 0.04912708
0.048487734 -0.18256006 -0.11149969 0.12207859 0.05316307 0.0036051567 0.03414462 -0.038229857
0.13474639 -0.28055543 0.08864529 -0.0712588 -0.025805863 0.009242925 -0.08923439 0.05510977
-0.03780367 -0.030806199 -0.12586208 -0.010120536 -0.065991014 -0.028996024 -0.07037996 -0.0136430655
-0.029935902 0.03166356 0.09988792 0.035922546 -0.15266299 0.0056398357 0.056711216 0.0360237
0.09030425 0.05820691 0.010551776 0.11787252 0.04733859 0.005619029 -0.13095784 -0.06406073
0.0093192225 -0.105408706 0.050987918 -0.1445585 -0.11732623 -0.16245666 -0.021240646 0.017237583
-0.11963682 0.041129597 -0.15377353 0.05355685 0.080161706 -0.014157938 -0.14232257 0.113554165

dense1.bias f4 [128]
00000000: 8312 e1bd b9af 2abd db0c 953d 2e71 033e
00000010: 9315 1f3e 81a2 623e 1d64 97bd 393e 45bc
00000020: 6e1a a13d c133 2b3e b89d 343e 1b6b 53be
00000030: 574a b5bd fc99 47bd 131b cfbd d515 12be
00000040: c556 e2bd a2bf d63d 81e0 4d3e 3fec 72bd
00000050: e5bf 873d a4bf 3ebc 32fc 093d 2b91 bcbc
00000060: 46ca f83d 3c95 763c 1573 203e cec4 86bd
00000070: f33e 3c3d 13b1 5ebe 58a1 fdbd f1c6 7e3e
00000080: 9108 cd3b 0709 fd3d 69b7 fbbc 6200 963d
00000090: 5392 c43d 96f4 babd 1237 93be a37d 42be
000000a0: 7017 4e3c 7268 57bd 2c33 603e 01c8 bb3d
000000b0: cd06 0a3d e78a d03d 7057 d03c a756 62bd
000000c0: 58ec 7abd 0137 9fbd c8b6 b6ba b1f4 80bd
000000d0: 9d4b 133d a654 5a3d bcd4 33be 9709 17bd
000000e0: 230f e03d 8029 53bd e4e5 af3d ae42 a0bc
000000f0: 3c4a 95bc 150c 87be 96a5 dfbd f395 30bc
00000100: abc8 46be 4d39 923c f032 703c ff89 47bc
00000110: 13f3 19be 7c6c 5dbd 4ea0 85bd 8c83 0cbc
00000120: 75e3 593e 724f 8e3d 37a7 133e 0259 0dbe
00000130: c2d6 f13b b5ae f1bc 9bec d9bc f62c 9f3d
00000140: f948 083d 803e 853d 50ba 1e3e ae1d 61bc
00000150: fd86 6a3d 6a98 c23d 09b7 31bd ba7b 3a3c
00000160: 02f7 8abe c079 353e eb68 223c 536f ff3d
00000170: 2848 79be 35f8 213e c974 40bd 0625 8e3d
00000180: 1c7b 82b9 ce91 5f3c 8ce8 ff3d f23b 02be
00000190: 7d6f 2f3d 9ee7 943d 8303 b83d 3aee 6c3d
000001a0: 2f77 ac3d df0b 373e 7b2c 603d ea67 5c3d
000001b0: fc23 113e cd27 64bd 3b76 943c 47e5 bdbd
000001c0: 60cf a9bd 278e e63c bc70 293e ce75 bebc
000001d0: 48bb 053e 74af 203e 4572 32be ca5a 3e3e
000001e0: 7a8c 6ebd 1d9d 22bd c5d7 d83d aaa4 3fbe
000001f0: 335e c73d d00f c5bd 4293 6cbe 7b66 0c3d
-0.10989859 -0.04167149 0.072778426 0.12836143 0.15535574 0.22132303 -0.07392142 -0.012038761
0.07866369 0.16718961 0.1763829 -0.20646326 -0.0885207 -0.048730835 -0.10112586 -0.14266141
-0.11051706 0.1048577 0.20105173 -0.059307333 0.06628398 -0.01164237 0.033687778 -0.02301844
0.121479556 0.015050229 0.156689 -0.06580506 0.04595847 -0.21747236 -0.123842895 0.24880578
0.0062571247 0.123552375 -0.030727105 0.07324292 0.09598222 -0.09128682 -0.28752953 -0.18993239
0.01257883 -0.05258984 0.2189452 0.09169007 0.033697892 0.101827435 0.025432318 -0.05525842
-0.06126055 -0.07774163 -0.0013939971 -0.06296671 0.035960782 0.053303383 -0.1756162 -0.03687438
0.10940387 -0.05155325 0.0858877 -0.019563045 -0.018223874 -0.26376405 -0.10920255 -0.010777938
-0.19412486 0.017849589 0.014660582 -0.012178897 -0.15034132 -0.054058537 -0.06524716 -0.008576285
0.21278174 0.06948747 0.14419256 -0.13803485 0.0073803375 -0.029502252 -0.02660208 0.077722475
0.033272717 0.065060616 0.1550076 -0.013739986 0.05725764 0.09501727 -0.043387447 0.011382038
-0.27141577 0.17722225 0.00991271 0.12472405 -0.24343932 0.1581734 -0.046986375 0.069406554
-0.00024887256 0.013645602 0.12495527 -0.1271818 0.042830933 0.0727074 0.08985045 0.057844378
0.0842117 0.17875622 0.05472992 0.053810038 0.14173883 -0.05570202 0.018122783 -0.09272247
-0.08291507 0.028143955 0.16546911 -0.023249533 0.13059723 0.1569193 -0.17426403 0.18589321
-0.058239438 -0.039700616 0.1058803 -0.18715158 0.09734764 -0.096221566 -0.2310305 0.03427742

batch_norm1.weight f4 [128]
00000000: 7d29 f63e f62a 243f 50ec ca3e 77c6 023f
00000010: 44c1 c13e 4662 0a3f ebc8 153f 12f8 563f
00000020: 492c 3b3f 0eb1 923e 9648 423f 5482 033f
00000030: d514 223f b85d 683f 0db0 163f d3ed 033f
00000040: 829d e93e 2929 623f c4ca d73e 9fdf cf3e
00000050: cee9 123f 8699 523f 78ed 0c3f 9fa3 793f
00000060: cb76 593f eefa 183f fa61 e73e 9f75 623f
00000070: 5a95 2e3f bb52 1f3f 3b4d 913e ff25 9a3e
00000080: 39e7 b53e 3469 583f 5986 bb3e e180 133f
00000090: 41bd 933e 78ca 483e e200 ea3e 25fc 4b3f
000000a0: 32d8 483f 2237 2d3f 1ada 173f 182b 393f
000000b0: d53a 3d3f f3ba 893e 15f1 403f d402 f63e
000000c0: 951a 303f 61c1 823e 6e87 cd3e 8c2b aa3e
000000d0: 9878 1a3f 8d86 6c3f 0531 6a3f 56cc 883e
000000e0: 05b3 bc3e 4a5f 2d3f 763d 513f 8161 c73e
000000f0: 90af d23e 231b 833e 24f0 373f b6aa 423f
00000100: 4042 263f e5a6 ca3e 5a46 763e 779c 383f
00000110: 423c 523f 3739 043f 5fd1 3e3f 5e94 1c3f
00000120: 6ce0 313f 57c4 8a3e b6ae e13e 487c 273f
00000130: 31af 573f d82c e03e 8292 0f3f 2420 5a3f
00000140: aa1c 643f d922 153f 010a 393f 0f16 353f
00000150: d965 143f 1259 053f 7686 2e3f 8610 243f
00000160: b865 1e3f 9350 1e3f 5bc7 cd3e 4faa 6b3f
00000170: 4124 0c3f 36b3 1e3f 3e9e 923e 6bb0 7f3e
00000180: 68d7 5b3f 4969 4b3f 8813 233f eec4 3a3f
00000190: 652c 073f c93f 643e a7c2 42bb 8ed7 213f
000001a0: 9dc4 073f e0b0 0b3f 3e60 413f dcd0 f23e
000001b0: 2f2f a93e 5627 4c3f ac4c bf3e 4bf1 023f
000001c0: 0632 3b3f f091 533f 4d43 823e d891 c33e
000001d0: 2ef0 193e e5d2 4a3e e1bd 583e 3be7 923e
000001e0: d769 173f 6dae 2c3f da19 5e3f 8eb2 2b3f
000001f0: db9e 3b3e 44d7 c23e eab5 d43e 4b01 563f
0.48078528 0.64128053 0.39633417 0.51084083 0.37842762 0.54056203 0.585097 0.83972275
0.7311445 0.28650707 0.7589201 0.5137074 0.6331304 0.90768003 0.5886238 0.51534766
0.4562798 0.88344055 0.42146885 0.40600297 0.5738801 0.8226551 0.5504985 0.9751529
0.8494689 0.5975789 0.45191938 0.88460726 0.6819664 0.6223561 0.28379235 0.30107114
0.3552797 0.8453553 0.36625937 0.5761853 0.28855327 0.19608486 0.457038 0.7968162
0.7845489 0.6766225 0.5931717 0.7233138 0.73917896 0.26900443 0.7536786 0.48049033
0.6879056 0.2553816 0.40142387 0.3323635 0.6034026 0.9239281 0.9148105 0.26718396
0.3685533 0.67723525 0.81734407 0.38941577 0.4114957 0.2560664 0.718508 0.76041734
0.6494484 0.39580455 0.24050274 0.72113746 0.82123196 0.516498 0.74538225 0.6116389
0.69483066 0.2710292 0.44078606 0.65424013 0.84251696 0.43784213 0.5608293 0.8520529
0.8910624 0.582563 0.7228089 0.70736784 0.5796791 0.52089036 0.6817392 0.6408771
0.6187396 0.61841697 0.4019116 0.92056745 0.5474282 0.61992204 0.28636354 0.24969642
0.8587556 0.7945753 0.6370168 0.7295674 0.52802116 0.22289957 -0.0029718073 0.63219535
0.53034383 0.54566765 0.7553748 0.47424972 0.3304381 0.7974752 0.37363183 0.51149434
0.73123205 0.8264456 0.2544197 0.38197207 0.15033028 0.19807012 0.21166183 0.2869204
0.59145874 0.6745365 0.86758196 0.6706933 0.18322317 0.3805486 0.4154504 0.8359572

batch_norm1.bias f4 [128]
00000000: 77a6 43bd b25d 983c 8c57 9abd 79e4 16be
00000010: 2f61 493c f5ad dbbd 9475 ff3b d817 51bd
00000020: 2669 503c 814c 3ebd 9905 a1bc a42c 8abd
00000030: 0f68 1fbd 408f 5bbe 44bb fbbd 9052 debd
00000040: 3097 abbd 78f2 6bbd 0e59 41bd a834 a9bd
00000050: e49f fcbd 094b 2fbe b0c2 bf3d d0a0 ea3b
00000060: fea3 cdbd 11e6 92bd 51f5 9abd b51a 1dbe
00000070: f22f 32be f860 73bd f105 96bd 2b3c efbd
00000080: b93e 1d3d d6b9 5c3e f8fa 69bd f496 10bd
00000090: 2619 17bd c150 08be 87ff 8c3d 1290 b3bd
000000a0: 03fb ad3c 7cbf 5ebc adbb 403d 812d bfbd
000000b0: eac9 81bd 3d1f a03b 171c 63be fd9b 46be
000000c0: e160 17be a3e7 1b3d fe04 eabd 87bf 9c3c
000000d0: ca0d 05bd 2b6f 31bd 4f38 99bd 8063 f1bb
000000e0: bb31 a5bd 4167 58bd 859a 68be a6c9 50bd
000000f0: 7de9 833d f056 363b c2b4 63bb 32f2 66bd
00000100: 836d 1cbe 54cd 453c 1254 2cbd 19e3 febd
00000110: e523 f5bd 27a1 6fbd 52db a9ba f4da f3bc
00000120: 2d75 12be a3f2 2e3d 65db 3abd dea9 0cbe
00000130: a712 a3bd 8d17 7cbc 6479 7fbd fe19 62be
00000140: 32ef 9dbd 63ca 5dbd f146 7bbd e74e a0bd
00000150: 6c43 5e3d c873 a3bb f500 4abc 534c 88bd
00000160: df37 593d 0061 03bc 103a 0abd f7aa 96bd
00000170: 8eee 9b3d ce62 d63a c26a d4bd 3c92 a4bd
00000180: 379d 2abe fb5a f2bd f1e4 ba3d d1cc c3bd
00000190: c2a4 f5bd 4e71 573b 1137 52bc d205 2cbe
000001a0: 0d06 e6bd a107 6bbc b480 793d a5c6 0ebd
000001b0: 1b93 d7bb ff98 30be 8802 b73c 1e22 76bd
000001c0: 7e6e fdbd 61e7 11be d910 85bd 6d74 16be
000001d0: 87c4 25be 539c 5a3d 3272 7d3d df56 c8bd
000001e0: 5e20 eb3c 1774 aebd b617 86bd ad25 3ebd
000001f0: 410c c33d 2594 babd b187 abbd cfea 3fbd
-0.047766175 0.018599365 -0.075362295 -0.14735593 0.012291237 -0.10726539 0.007795999 -0.05104813
0.012720382 -0.04645968 -0.01965599 -0.06746796 -0.038917597 -0.21441364 -0.122915775 -0.10855591
-0.08378446 -0.057604283 -0.04720407 -0.082619965 -0.12335184 -0.17118467 0.093633056 0.0071602836
-0.10041045 -0.07172788 -0.07566322 -0.15342219 -0.17401102 -0.05941865 -0.07325352 -0.11681398
0.038389895 0.21555266 -0.057124108 -0.03530021 -0.036889218 -0.13312055 0.068846755 -0.087677136
0.021237856 -0.013595458 0.04705398 -0.09334851 -0.0633734 0.0048865364 -0.22178684 -0.19395442
-0.1478305 0.038062703 -0.114267334 0.019134296 -0.032483853 -0.04331891 -0.07481443 -0.0073665977
-0.08066126 -0.052832846 -0.22715195 -0.050973557 0.06441019 0.0027822815 -0.0034745191 -0.05638332
-0.1527615 0.01207288 -0.042072363 -0.12445659 -0.11969737 -0.058503296 -0.0012959039 -0.02976749
-0.14302512 0.042711865 -0.045619387 -0.13736674 -0.07962542 -0.015386474 -0.062371626 -0.22080228
-0.077116385 -0.05414809 -0.061346952 -0.078275494 0.054263517 -0.0049881674 -0.01232933 -0.06655183
0.0530318 -0.008018732 -0.03374678 -0.07356828 0.0761386 0.001635635 -0.10371925 -0.080357045
-0.16661535 -0.118337594 0.09125698 -0.0956055 -0.11994316 0.0032873931 -0.012830512 -0.16799095
-0.11231623 -0.014345081 0.060913756 -0.03485741 -0.0065788156 -0.17245863 0.022340074 -0.06009113
-0.1237459 -0.1424842 -0.06497354 -0.1469285 -0.1618825 0.05337174 0.061876483 -0.09782194
0.028701957 -0.08518236 -0.06547491 -0.04642265 0.095238216 -0.091102876 -0.083754905 -0.04685479

batch_norm1.running_mean f4 [128]
00000000: e11d 853c 9b63 f4bd 74a2 d83d 3bc8 6d3e
00000010: 8721 003d 55cf 153e 9f00 25be 4000 0cbd
00000020: 009c 43bd 33b2 0c3e 19f1 503e 2da7 81be
00000030: 420f c23a 3381 a3bb bc3d 8a3d 6602 92be
00000040: 9460 c0bc c0ca 2e3d 6cc8 773d d4c7 bcb8
00000050: 7e4e 04ba 4cf1 d0bd c5a7 f63d c6da 3e3c
00000060: d8a9 443e a842 6e3b 4dac 92bc 91cd da3a
00000070: 80c6 683c b25e 95be 9c33 56be 3d1d 953e
00000080: 2fb4 3b3b 2a19 cfba 8316 963d 55ee 693e
00000090: 1fb3 743e cb37 5f3e 1d91 6abe a775 70be
000000a0: afe9 64bd 6f68 983d 439c 683e 0f6f ba3e
000000b0: 409d 39be 1c5a 623e 850f af3e 3d70 823d
000000c0: 5868 4fbd ff86 693d 6269 2abc 079d 15be
000000d0: 44ed 34be 325f 4a3e ce29 41be 4754 f8bd
000000e0: a35d ad3d 62e9 cd3d 41a0 f03d e04a 4e3d
000000f0: 75c8 b33d c999 3fbe 3499 a63d c409 33be
00000100: 6d79 b13d ae27 a83d 3259 b53b 6093 45bb
00000110: c4b3 45ba 48de 843c ce80 8bbd 2b88 be3a
00000120: c00d fa3d fd4d 213c 27b4 6cbd 7b86 36be
00000130: a392 453e e0ee 8abd c81f 5b3e 4187 053e
00000140: fb99 d33d 3823 8dbb aaf9 af3e 8a73 de3d
00000150: 9d84 2abc 2ae3 a23d bcec 703b 16d6 c93d
00000160: fbdc 8dbe b568 983e 9874 003e e8db 9cbb
00000170: 3fc1 8cbe 21e8 d73d 4afd 093e 54f5 5a3e
00000180: fc02 773e f06f b3bd fbc7 893d a6ba afbe
00000190: 7ce4 c43c 0931 9f3b 108f 193b 6032 ccb9
000001a0: b3ff f5bd 5381 9e3e 8d76 26be e4d7 bf3d
000001b0: 312f 483e 8534 8c3d cd07 46bd a6b7 3a3b
000001c0: ed8e c63d 828f e13d 7406 293e 74de b2bd
000001d0: e011 243e dfc8 d03e f2f5 28be 4ff9 393e
000001e0: dd30 04ba 7904 0bbb 3908 903a 8741 9fbe
000001f0: e84e c4bb be6c 3ebe f877 9cbb ba0c 77bc
0.016249599 -0.11933061 0.105778605 0.23220913 0.031281974 0.14629872 -0.16113518 -0.034179926
-0.047756195 0.13739853 0.20404471 -0.25322857 0.0014805573 -0.004989767 0.06750056 -0.28517455
-0.023483552 0.042673826 0.06049387 -9.0017595e-05 -0.00050470966 -0.10202274 0.12043718 0.011648839
0.19205415 0.0036355648 -0.017904425 0.0016693344 0.014207482 -0.2917381 -0.20918125 0.2912387
0.0028641333 -0.0015800346 0.073285125 0.22844823 0.23896454 0.21798627 -0.22906919 -0.23482381
-0.05588692 0.07441794 0.22715859 0.36412856 -0.18126392 0.22104686 0.34191528 0.06369064
-0.05063662 0.057013508 -0.010401102 -0.14610682 -0.17668635 0.19762877 -0.18863603 -0.1212545
0.084651254 0.1005428 0.11749316 0.050364375 0.087784685 -0.18711008 0.0813469 -0.17484194
0.08665738 0.08210693 0.0055343146 -0.0030147657 -0.0007541741 0.016219273 -0.06811677 0.0014536431
0.12209654 0.009845254 -0.057788994 -0.17824738 0.19294219 -0.06783843 0.21398842 0.13039877
0.10332104 -0.004307177 0.34370166 0.10861881 -0.010407594 0.07953484 0.0036762198 0.09855287
-0.27707657 0.29767385 0.12544477 -0.004786957 -0.27491185 0.10542322 0.13475528 0.21382648
0.24122232 -0.08761585 0.06727596 -0.3432209 0.024034731 0.0048581404 0.002343122 -0.00038947444
-0.120116614 0.30958042 -0.16256161 0.0936735 0.19549252 0.06845955 -0.048347283 0.002849081
0.0969523 0.110137 0.16506368 -0.08733836 0.16022444 0.40778252 -0.1650007 0.1816151
-0.00050426816 -0.0021212383 0.0010988779 -0.3110468 -0.0059908517 -0.1859617 -0.0047750436 -0.015078718

batch_norm1.running_var f4 [128]
00000000: ef2d e63c 59fe a53c aae9 0a3d bd88 b43c
00000010: 9297 f23c ed53 b53c af66 fa3c b198 633d
00000020: 213f 253d 9e1a e13c 3791 a53c 4c0b c53c
00000030: cea1 d43c 3a27 013d 698f 923c 0179 e73c
00000040: e4a4 053d e73e 493d 29f5 a53c 0a34 073d
00000050: ba2d e13c b956 ad3c 3675 c53c e52b d43c
00000060: 3090 c73c f3c4 b03c 465e f63c 9582 dc3c
00000070: 4cb1 d03c cfde 1f3d ead6 e53c 714a d53c
00000080: 4179 953c 7b91 cf3c aa51 833c c499 9f3c
00000090: e161 833c 663b 983c 872a 183d 66f2 003d
000000a0: f2a8 093d 2acb 073d bd01 f23c 3383 d73c
000000b0: 0019 913c edab 933c 793f 0a3d 0506 a13c
000000c0: 76f8 c53c 730b 873c 7238 ab3c 9558 c53c
000000d0: 9e14 c33c ca60 123d b1c6 c33c fdff 883c
000000e0: d4c0 b93c c1f3 c13c b3f6 f23c bab3 b43c
000000f0: 6494 cf3c 4ee8 ea3c 7f76 db3c b718 e83c
00000100: 582e 8b3c d958 733c 38b8 b93c 5981 013d
00000110: 6593 ad3c 0516 cd3c 6c42 cb3c ae97 c73c
00000120: e9d9 b23c c50e 933c e901 e23c ddc6 ba3c
00000130: c81a 143d 8783 d53c cd7d 833c 568a da3c
00000140: fbd0 083d 4c6b bc3c 7b8e 1a3d 8e57 df3c
00000150: 878f b03c 0335 9a3c 4cce d83c be5e b83c
00000160: c1c4 013d b264 ef3c 5d9c 3c3d 9262 0c3d
00000170: 2dd4 c53c 5870 9d3c 2bf3 aa3c 2620 b13c
00000180: 0508 e63c 0848 da3c 0125 0b3d 8988 2a3d
00000190: 80c1 c03c e063 943c 2b8d 5c3c 6a99 e03c
000001a0: 8b95 173d 7355 ae3c 0df8 e03c 5a83 bb3c
000001b0: e64c e23c 14e9 f53c 4ac8 8c3c e034 8d3c
000001c0: 130f a53c 446d ed3c 32cf b23c 76e3 d43c
000001d0: e7a6 dd3c 80ed e53c 16ea b33c 3888 da3c
000001e0: 0db6 0c3d 4bee c23c 67f3 993c 075f a13c
000001f0: 84f1 923c 128b 8d3c 4628 b23c ea6d a73c
0.028098075 0.020262884 0.033914246 0.022037858 0.02961329 0.022134745 0.030566541 0.05556554
0.040343408 0.027478512 0.020210845 0.024053238 0.02595606 0.03153155 0.017890649 0.028255941
0.032627955 0.049132254 0.020258503 0.033008613 0.027487624 0.021159517 0.024103742 0.025899837
0.024360746 0.021578288 0.03007425 0.026917735 0.025475167 0.039030846 0.02805658 0.026036473
0.018246295 0.025337925 0.016030151 0.0194825 0.016037883 0.01858301 0.037149932 0.03148117
0.033608384 0.033152737 0.029541845 0.026307678 0.017712116 0.018026317 0.03375194 0.01965619
0.024166327 0.016484952 0.020900939 0.02409009 0.023813542 0.035736836 0.023898454 0.016723627
0.022674955 0.023675801 0.029658651 0.022058357 0.025339313 0.028675225 0.026789902 0.028332097
0.016989872 0.014852726 0.02267085 0.031617496 0.021188447 0.025034914 0.024811946 0.024364319
0.021832423 0.017951379 0.027588801 0.022799904 0.036158353 0.026063694 0.016051197 0.026677292
0.033402424 0.023000382 0.037733536 0.027263429 0.021552814 0.018824106 0.026465558 0.022506114
0.03168178 0.02922282 0.046047557 0.03427369 0.024149025 0.019218609 0.020867905 0.021621775
0.028079996 0.026645675 0.033970837 0.041634116 0.023529768 0.01811403 0.013461391 0.027416904
0.03700785 0.02128098 0.02746203 0.022889782 0.027624559 0.030018367 0.017185349 0.017237127
0.02014879 0.028982766 0.021827314 0.025987368 0.027057124 0.02806735 0.021962207 0.026676282
0.034353305 0.023795268 0.018792821 0.019698633 0.01793743 0.017278228 0.02174772 0.020438153

dense2.weight f4 [128, 128]
00000000: 37dd ed3c d192 933d 864d 08be 3e9b 0ebe
00000010: 1f1c e2bc 18ea 173e 2720 1b3d 7f07 e63d
00000020: 1d12 66bd 147e 8f3c 3310 cb3c ec8c c03d
00000030: 340f 82bc 3c99 853d 322b de3d 503b 0fbb
00000040: 0559 2a3d 78f8 bebb 21d7 7cbd 24e3 58bb
00000050: 5148 403d b3b4 483c a4c1 5a3c ad68 ed3a
00000060: a7a8 47bb faf9 bbbc 70c4 45bd b3a2 333d
00000070: bb48 4b3d a83c 523c e9af ce3b 654a e03d
00000080: 86e5 2ebd e3fe 253d 552c 8d3d 8a17 c0bc
00000090: 4eb3 d43d 709a 863e 2934 2bbe 3b7a 4b3c
000000a0: b69e 52bd 439a 273d bc7c 293c 5f9e 86bb
000000b0: 0fd6 213d 10c7 a93d 988e 443d 321c 953d
000000c0: 24bf 383d 2104 58be 3ac1 9a3d 0ca0 76bc
000000d0: 151d c83d 9f71 413d 08ea 76bd c3d1 053e
000000e0: 4e0d 5a3d f41f f5bc ceaf 9cbc 2b52 4a3d
000000f0: 7650 1ebd b943 953d 67c5 94bb 8aa0 c23d
00000100: 75bc 983d 58df c03d a179 fdbd 050a 4e3b
00000110: 5cd2 71bd 9ba2 cbbd 0bbf 923d 1cf6 bbbd
00000120: db78 4ebd a060 0ebe 9a3e 92bd 1ebf 86bd
00000130: 77ec 003c 77a8 0bbd 0290 f83c 20bc 03bb
00000140: 7c1d 293d 640a 83bb cb11 55bc e859 2e3d
00000150: 02eb 943c 8af1 fa3c 99c6 3ebc a395 d639
00000160: 80b0 82bd f019 a7b8 95ef 85bd 5831 273c
00000170: 0ac2 863b 7a2a 0cbe 76a0 08be 50d3 b43d
00000180: 11d6 47bd 9682 943c 3490 b03d 49e7 0b3e
00000190: f935 07bc fa39 58bd a3e4 a53c c299 b33d
000001a0: 8ede 07be 304f 65bc 797b 4abd 282a 06bd
000001b0: 712b 8bbc 43bd cdbd c139 9cbd dfb5 03be
000001c0: 4d50 333d 939a 93bd 255f 05be 9eaf 103d
000001d0: af96 2d3e 83ae db3d b672 93bd 79e9 0dbe
000001e0: 5808 603d effc 6dbd 4b09 113d ba68 99bd
000001f0: 5cbe 88bd cadf f1bd 731f 793e 711d 833c
00000200: 7f8a 2f3d 2c54 b23c 9d16 bfbd 8708 713c
00000210: ba44 bbbd 384b 013e 57da 9fbc 32cc 37bd
00000220: ddd4 3fbd dd7d 34bd 0254 88bc 625d 303d
00000230: db03 543d 0e3b 443d 6778 613d 2852 80bc
00000240: 4cb0 923d b712 8c3d 4e0f cb3d 8279 c6bc
00000250: eaf1 62bd fafe 1c3d a31b 41be fcc7 d03d
00000260: adb2 9a3c 0fe8 713c da6a 8a3d c450 43bd
00000270: 715b c3bd 6cfc 1e3d be71 873d 2c2e 383d
00000280: 7cbd 4d3d 6b9f c9bb 2916 3a3d d920 58bd
00000290: 2a57 6ebd a765 ecbc 2ede dd3c 9aee 71bc
000002a0: 25e0 213d 0505 fabc cc06 d23d 3198 053d
000002b0: 906c a9bc b64e 913c 0c09 653d f511 2e3d
000002c0: b457 e3bb 54af a03a df13 763d 5d80 c0bb
000002d0: d23b b63d dc62 8c3d 2273 db3d 4d9e a5bd
000002e0: b65f 06be b738 253e a945 d1bc 7660 3fbd
000002f0: 520f afbd bd8b 0bbe 66fe 92bd bad9 eb3d
00000300: 8326 ae3c d3fc ac3d 5771 58ba 4a39 c63d
00000310: 7a43 fbbd a817 a23d f05c 2dbd e518 38bd
00000320: 6d9a 2bbe 1569 553d 1c97 f1bc 98ae a0bd
00000330: 8a62 24bd 9191 8bbd 1ece 833d ba2e 723d
00000340: c2e4 c2bd 9d20 2c3d bf4e 133d f836 803c
00000350: 50cd c33c e23e 5ebd b6aa 0e3d 10df e63d
00000360: be40 6bbd 108a 07be 5c51 8bbc 05bf ed3c
00000370: 5a00 5ebc 5c39 51bc e370 f9bc 55ec 373e
00000380: 5d2f a5bc 319f 3ebd 24dd 513b bc02 61bc
00000390: 2715 00bd b974 7b3d 2312 2cbd d992 47bd
000003a0: 9f6f 403c 0485 843d 2a92 8cbd c33a 3bbd
000003b0: 39e3 3c3c ecbc 87bd 1282 eebd bc91 963d
000003c0: ae67 12bc f958 bebc 1ec6 54bc 146e cbbd
000003d0: 2126 6f3e 499c 093c 13f1 aa3c fa13 28be
000003e0: 4542 60bd 1ded 2a3d 5784 1bbd dc55 423d
000003f0: 3f91 5a3d 04ae 11bd 9aea 9d3d 9958 993d
0.029036148 0.072057374 -0.13310823 -0.13926408 -0.0276013 0.14835393 0.03787246 0.112318985
-0.056169618 0.017516173 0.024787998 0.09401879 -0.01587639 0.06523368 0.108480826 -0.0021855421
0.041588802 -0.0058279596 -0.0617286 -0.003309437 0.046943966 0.012250113 0.013351832 0.0018112861
-0.0030465515 -0.022946347 -0.04828304 0.043856334 0.049629908 0.012831844 0.006307591 0.1095169
-0.04269936 0.040526282 0.06893221 -0.023448724 0.10385762 0.262897 -0.16719116 0.012419279
-0.05142089 0.0409186 0.01034468 -0.004108235 0.039510783 0.08289921 0.04798755 0.072807685
0.04510416 -0.21095325 0.07556386 -0.015052807 0.09771172 0.0472275 -0.060281783 0.13068299
0.053235345 -0.029922463 -0.019126799 0.049394768 -0.038650952 0.07288308 -0.0045401338 0.09503277
0.0745782 0.094175994 -0.123767145 0.0031439078 -0.059038505 -0.09943124 0.07165345 -0.09177801
-0.050408226 -0.13904047 -0.071408466 -0.065794215 0.007868878 -0.034096207 0.030342106 -0.0020101145
0.041287884 -0.0039990414 -0.01300473 0.04256621 0.018178467 0.030632753 -0.011644029 0.0004092875
-0.06381321 -7.968012e-05 -0.06539837 0.010204636 0.0041124867 -0.13688079 -0.13342461 0.08829367
-0.048788134 0.018128674 0.086212546 0.13662447 -0.008252614 -0.052789666 0.020250624 0.08769561
-0.13268492 -0.013995931 -0.04943416 -0.032755047 -0.016988488 -0.100458644 -0.07628203 -0.12862347
0.043777753 -0.07207217 -0.13024576 0.03532373 0.16952012 0.10726645 -0.07199614 -0.13858594
0.054695457 -0.058102544 0.035409253 -0.07490678 -0.06676933 -0.118102625 0.24328403 0.01600525
0.04285669 0.021768652 -0.09330485 0.014711506 -0.09143968 0.1262635 -0.019513292 -0.04487247
-0.04683386 -0.044065345 -0.01664162 0.043057807 0.05176149 0.04790788 0.055046465 -0.015664175
0.07162532 0.06839507 0.099150285 -0.024227861 -0.05540649 0.038329102 -0.18858199 0.10194394
0.018884027 0.0147648 0.067586616 -0.047684446 -0.095389254 0.038814947 0.066134915 0.044965908
0.050229535 -0.0061530373 0.04543129 -0.0527657 -0.058188595 -0.028857065 0.027083483 -0.01476636
0.0395204 -0.030519972 0.10255203 0.032615844 -0.02068165 0.017737728 0.05591683 0.042497594
-0.0069379453 0.0012259283 0.060077544 -0.005874677 0.088981286 0.068547934 0.10715319 -0.08086834
-0.13122448 0.16134916 -0.025545912 -0.04672285 -0.08547844 -0.13627525 -0.07177429 0.115161374
0.021258598 0.0844666 -0.0008256635 0.09678896 -0.122687295 0.07914668 -0.04232496 -0.044945616
-0.16758128 0.052102167 -0.029491 -0.07845801 -0.040133037 -0.06814874 0.06435798 0.059126593
-0.09516288 0.04202329 0.03596377 0.015651211 0.023901612 -0.05425919 0.03483077 0.112730145
-0.05743479 -0.1323626 -0.017006569 0.02902175 -0.0135498885 -0.012770023 -0.030449336 0.17961247
-0.020164186 -0.046538536 0.003202268 -0.013733562 -0.031270172 0.061390612 -0.042009484 -0.04872403
0.011745363 0.06470683 -0.06863816 -0.045710336 0.0115287835 -0.06627831 -0.11645903 0.073520154
-0.008935852 -0.023235785 -0.012986688 -0.09933105 0.23354389 0.008399078 0.020866906 -0.1641387
-0.0547507 0.041730035 -0.037968006 0.047445163 0.053361174 -0.035566345 0.07710762 0.07487602

dense2.bias f4 [128]
00000000: f192 a9bc 0633 013b f3d6 db3d d302 9fbd
00000010: 138b 873d 4525 78be dcd1 a3bd dd9f 903c
00000020: dcdc c2bc 4dbd 12bd 79e5 84bd b70f 853e
00000030: 6af9 11be 2cc7 b63d 54b8 e13d 4ba1 6e3c
00000040: ba87 10be 1046 063e 5152 b73d 6297 853c
00000050: a880 503d 9278 143e 4fce fa3c c4e5 b73d
00000060: 78f5 113e 7657 23bd ce17 e5bd 7cdf af3d
00000070: cf4e eb3d f61b 323c 0a59 30bd c820 f9bd
00000080: 7b94 123e eecf 66bc eba7 1f3e 176e 81be
00000090: 1ea1 e53d ebdc f1bc f8d9 00be f44c d53d
000000a0: 11a6 043d 2274 a93d 6d9b 913d 2534 043d
000000b0: b85b a1bd a0e3 2abe 2a2a 1b3d f870 d03d
000000c0: d511 433d ebc1 d1bd c358 4d3e e25c c5bd
000000d0: cedf 4d3d 24e9 adbd b24e 0fbe 63b6 743d
000000e0: 2234 8abd 283f cfbd d10f ce3c 7363 a9bd
000000f0: aa0d bfbb f80a f23b add1 ac3d 1996 543e
00000100: 5ed0 223d d830 043e fb72 e6bd fe19 a8bd
00000110: 8832 093e 32a1 47be c4b0 343e a28d 163e
00000120: 6b26 4e3e c0b4 a9bd 344c 37be c901 c53d
00000130: aabb ecbd 3c32 6b3e 0689 e03e 8993 84bd
00000140: fc54 c0bd dd7e c63c 171e ffbc ef34 ebbd
00000150: 4436 093e bde6 2cbe 3598 afbd bb8b 8b3d
00000160: 429c 0a3d a060 433d cea5 c0bd 36bc 8f3d
00000170: 56c1 043e d070 e5bb 33c1 a9bd 20f7 adbd
00000180: de6c fa3c 7298 c2bd 7197 403d 26dc 71bd
00000190: 3443 0b3e 15e6 253d 07c9 d1bd 5920 24be
000001a0: fb1b da3b fb8d 1b3e c9fa 893d 6b1c 0fbd
000001b0: c054 62bd 71d8 6abc f1f0 babc eaff 8e3c
000001c0: e9e7 123e e083 4c3c d4fc 3b3d 1d60 ecbc
000001d0: 375f 283e c8e5 a2bd 90d6 083e ccff 9dbb
000001e0: 06df 313d e923 5e3d c570 b7bd f82e 65bc
000001f0: 1dfc f53c eaaf 003e 9618 8abd 3801 9dbd
-0.02069995 0.001971425 0.10734358 -0.077642106 0.06618323 -0.24232967 -0.07999012 0.017654354
-0.023786955 -0.035825063 -0.06489081 0.25988552 -0.142553 0.08924708 0.11021486 0.014564822
-0.14114276 0.13112664 0.089512475 0.016307537 0.050903946 0.14499119 0.030615954 0.08979371
0.14253795 -0.03987833 -0.11186181 0.08587548 0.11489641 0.010870924 -0.043053664 -0.12164456
0.14314453 -0.01408766 0.155914 -0.25279304 0.11212371 -0.029524287 -0.12583148 0.10415068
0.032384936 0.08274104 0.07109723 0.03227629 -0.07878822 -0.16688395 0.037882008 0.10177797
0.047624428 -0.10242065 0.20053391 -0.096368566 0.050262265 -0.08491734 -0.13994864 0.05974425
-0.06748225 -0.10119468 0.025154026 -0.082709216 -0.0058304863 0.0073865615 0.0843843 0.20760383
0.039749496 0.12909257 -0.112523995 -0.082080826 0.13398182 -0.19495085 0.17645556 0.14702466
0.20131843 -0.082864285 -0.17900163 0.09619481 -0.115592316 0.22968382 0.4385454 -0.064734526
-0.093912095 0.024230415 -0.031142278 -0.11484706 0.13399607 -0.16884895 -0.08573953 0.06813761
0.033840425 0.04769957 -0.09406625 0.0701832 0.12964377 -0.0070019737 -0.08288803 -0.08494401
0.03056949 -0.09501733 0.047019426 -0.05904784 0.13599855 0.040502626 -0.10243421 -0.16027965
0.0066561676 0.1519088 0.067372866 -0.03493921 -0.055256605 -0.01433383 -0.022819968 0.017456014
0.14346279 0.012482613 0.045895413 -0.028854424 0.16442572 -0.079539835 0.13363099 -0.004821753
0.043425582 0.054233465 -0.08957056 -0.013988249 0.030027444 0.12567106 -0.06742971 -0.07666248

batch_norm2.weight f4 [128]
00000000: 1cf4 163f 99a2 c13e 98a5 c23e 1e05 913e
00000010: 42aa 573f cf9e ef3e 704d c43e 5af5 ae3e
00000020: 1826 7b3e b893 5d3f 9e75 253f 3531 b83e
00000030: 5b49 593f 2519 a93e 2b95 403f 4b45 183f
00000040: 6027 533f 7752 da3e fdca 583f c345 343f
00000050: 09fc 283f 8716 273f 82a8 b53e 6ae9 a23e
00000060: fd8a 363f 9d1f 9d3e 1a60 c13e 6bd2 823e
00000070: 6ab3 bc3e 8292 623e 9746 a63e 8388 5f3f
00000080: 4159 4e3f 6f73 fe3e 4c5f 823e 410a 393f
00000090: 4eee 853e 6a0b 183f e21a c13e ed25 e83e
000000a0: 2e2b 193f e458 473f 2774 1f3f 4856 a73e
000000b0: 3339 763e 5989 6f3f f334 183f 1c05 6e3e
000000c0: 9b6c 313f 11c4 d83e 5cbc 273f d9c9 903e
000000d0: d2f6 8e3e 8b67 5c3f 99db 593f 5b58 5d3f
000000e0: 4c92 583f 62b9 d13e 6935 5b3e c42d 9f3e
000000f0: 0c31 f73e b746 da3e e22d c63e 579d 593f
00000100: 735b 723e 327c 4a3f fa07 bd3e 2426 453f
00000110: 1f3e 623f 5c01 603f 5dec 4b3f 7b9d 1d3f
00000120: 583e a93e df2b 453f 6efe aa3e fbb5 073f
00000130: d858 093f ea15 8e3e 7780 a03e 0ece f13e
00000140: e20d 843e d328 963e 41e4 013f 149a 823e
00000150: 385d ca3e 6753 343f 22a3 603f 7ab9 2f3f
00000160: 4092 313f a8bb ec3e df7f 5d3e 88cd 973e
00000170: 5c61 5d3f 11c7 d93e 5a99 ec3e 0709 ae3e
00000180: 3363 023f 83d9 8a3e 4f61 1f3f 1f25 be3e
00000190: ea9a 8c3e aa68 5f3e 87df 243f f431 853e
000001a0: 9976 563f 20bb e03e 69ea d53e ea1d fb3e
000001b0: 112a a13e 2f18 353f 9568 2d3f 1509 303f
000001c0: cc46 b83e cc56 bf3e f8c8 363f 9cf6 473f
000001d0: 7b7e 743e b42b d23e ef87 623e cf51 1e3f
000001e0: e798 d23e c82f 9b3e 7246 ea3e c324 533f
000001f0: 38f3 103f 2d63 843e be9d ad3e f5cd 3a3f
0.5896623 0.37819365 0.38016963 0.28324217 0.8424417 0.4680085 0.3834033 0.34171563
0.2452625 0.86553526 0.64632595 0.35975042 0.84877557 0.33026996 0.7522761 0.5948073
0.82481956 0.4264104 0.84684736 0.7041895 0.66009575 0.6526875 0.35480124 0.31818706
0.7130583 0.30688182 0.37768632 0.2555116 0.36855632 0.22126201 0.3247573 0.87317675
0.8060494 0.49697444 0.2546333 0.7228127 0.26158375 0.59392416 0.37715822 0.45341435
0.5983151 0.7787001 0.6228661 0.32683015 0.24045257 0.9356895 0.59455794 0.23244137
0.69306344 0.42337087 0.6552179 0.28278998 0.27922684 0.86095494 0.85100704 0.86462945
0.8459823 0.40961748 0.21407093 0.31089604 0.48279607 0.42632076 0.3870688 0.85005707
0.23667698 0.79095757 0.36920148 0.7701132 0.8837604 0.87502074 0.79657537 0.6156842
0.33055377 0.77020067 0.3339724 0.53012055 0.5365119 0.27751094 0.3134801 0.4722752
0.25791842 0.2932802 0.5073891 0.25508177 0.39524245 0.7043976 0.8774892 0.6864239
0.69363785 0.4623692 0.2163081 0.29648995 0.86476684 0.42534688 0.46210748 0.33991262
0.50932616 0.27119073 0.62257856 0.37137696 0.2746194 0.2181727 0.64403576 0.26014674
0.83774716 0.43892765 0.41780403 0.4904626 0.31477407 0.70740026 0.67737705 0.6876386
0.35991514 0.37370908 0.71400404 0.7811067 0.23876373 0.41048968 0.22122167 0.6184358
0.4113228 0.30309892 0.4575687 0.8247797 0.5662112 0.25856915 0.3390941 0.72970515

batch_norm2.bias f4 [128]
00000000: deed 3dbe c5fa 6dbe a2cc f9bd 1f6a 30bd
00000010: 6bbc 2dbe 9d8b 02be fa02 5bbe 08b0 85bd
00000020: 0eca 60bd 1d84 37be abd8 97be 50e6 21bd
00000030: 4089 99be fa9f 91bc 0510 85be 8a30 cbbd
00000040: 9e32 88bd 789d d4bd ee9f 8abe 4a64 33bc
00000050: 657a 94bd fd78 f3bd 857d 63be 9574 ccbd
00000060: 6aed 58be ff20 e8bd fbc0 96be ef96 f3bc
00000070: c0a8 dcbc 6b4a 363c 830c a9bd e3c6 a5bd
00000080: e95d 7ebe a128 63be 6d41 c3bd 37a6 7ebd
00000090: 1d3b 45bd 9601 26bd 35ba 0bbe 5d79 12be
000000a0: c3e8 45be 7af3 82be 7d43 47be d20f 24be
000000b0: c9fd e0bd 2ef2 7abd 19de eabd 2c5a ab3b
000000c0: 5214 39be cf72 9cbe bc84 16be 7f29 30bd
000000d0: 1fd4 88be 83a5 19be 5b9f 13be a7d6 a0be
000000e0: 5234 86be ce66 62be 04b8 02be 52ed 57be
000000f0: 80bd 65be c054 e7bd 65b2 44be fb2a 8abe
00000100: e0a9 a1bd 26d8 39be 1250 23be f41e 2dbd
00000110: 6ff7 b4bd 2941 79be a0e5 03be 1b52 80be
00000120: 4cb2 253d 6840 3cbe 4ac5 b4bd 2d58 65be
00000130: 6fa8 79be 8e8c 5fbd 4991 19be d634 c2bd
00000140: af87 81be f172 44bd 6e5b 91be 976c 75bd
00000150: 4d7b 08be 6336 ebbd 6895 25be b3ba 24be
00000160: 0018 94bd 9b34 02be 9250 13be 88e4 723c
00000170: d5db eabd b4a3 29bd 805b ad3c 19eb 453d
00000180: ef3d 20be 7a23 6abe 50a2 03be d657 febd
00000190: 6238 8ebd 5688 ee3d ee11 c8bd 1345 6dbd
000001a0: 19d2 4abe a8c0 d4bd 7733 fbbd c11f 39be
000001b0: 685d 82bb c647 b8bd 83d9 9abe 12bf 0ebe
000001c0: cbe1 1dbe a960 22be 141c cfbd d479 68bd
000001d0: 306c 23bd 411d 89bd c5ee 27be 8e37 88bd
000001e0: 7bbf 32be 7c55 88bd 45c7 30bd 1158 11be
000001f0: 5836 0fbe 1af0 d83d 46ad 1cbe 7a3f 7abe
-0.1854777 -0.23240192 -0.12197234 -0.043069955 -0.16966407 -0.1274857 -0.21387854 -0.06527716
-0.054880194 -0.17921491 -0.29657492 -0.039526284 -0.29987526 -0.017776478 -0.25988784 -0.099213675
-0.066502795 -0.10381597 -0.27075142 -0.010949204 -0.072499074 -0.11888311 -0.2221585 -0.09983174
-0.21184316 -0.113344185 -0.29444107 -0.029735057 -0.026935935 0.011126141 -0.082543395 -0.08094575
-0.24840511 -0.22183467 -0.09533963 -0.062170234 -0.048152078 -0.040528856 -0.13645251 -0.14304109
-0.19327073 -0.25576383 -0.19459338 -0.1602166 -0.10985906 -0.061266117 -0.11468143 0.005229255
-0.18074158 -0.30556342 -0.14699072 -0.043008324 -0.26724336 -0.15004544 -0.14416258 -0.31413767
-0.26211792 -0.2210953 -0.12765509 -0.21086624 -0.2243557 -0.11295462 -0.19208677 -0.26985916
-0.07893729 -0.1814886 -0.15948513 -0.042265847 -0.08836257 -0.24341263 -0.12880564 -0.25062642
0.04045324 -0.18383944 -0.088266924 -0.22396918 -0.24380659 -0.054577403 -0.14996828 -0.09482734
-0.2529883 -0.04796118 -0.28390068 -0.059918012 -0.13328286 -0.11484983 -0.16170275 -0.16086845
-0.0723114 -0.1271538 -0.14386204 0.014824994 -0.11467711 -0.041415885 0.021161795 0.04831991
-0.15648626 -0.22865096 -0.12854886 -0.12419097 -0.06944348 0.11647098 -0.09769045 -0.057927202
-0.19806708 -0.10388309 -0.122656755 -0.1807852 -0.00397842 -0.08998065 -0.30244073 -0.13940075
-0.15418164 -0.15857185 -0.10112777 -0.05675681 -0.039898098 -0.06695033 -0.16399677 -0.06651221
-0.17455857 -0.0665693 -0.04315879 -0.14193751 -0.13985574 0.10592671 -0.15300474 -0.24438277

batch_norm2.running_mean f4 [128]
00000000: 8b56 e23c 79b7 f53c 697c 8fbd 1543 f73b
00000010: 5e8f 2ebc a7e1 b7be c6ef 25be c173 223b
00000020: 3236 913c 1ed8 f9bd d2b3 94bd 53bf 2d3e
00000030: c503 afbe 63ce 90bd dde0 c63d 8ac9 34be
00000040: ee0a 2cbe 9df6 6a3c 2e4b 76be be3d f8bd
00000050: c408 7e3c a5ef 633d e701 87bd da0e 253b
00000060: 11d6 27be 960d 46bd 9787 ffbe 33f0 eebd
00000070: 4358 f0ba 3808 8dbe 5688 233e db45 ccbe
00000080: 7b70 39be 5752 15be dc7f c8bd 8a0a a8be
00000090: 6d38 e5bd 92cb 02be 7cf7 6abe b328 30be
000000a0: 3d08 103e cd4b 68bd 187b c3bd 11c0 253b
000000b0: 090c 25be 62f3 87be f010 a4be 5c31 993b
000000c0: 7ef8 5fbe 8885 7e3b 3efb f3bc 566e 7abe
000000d0: 7611 22be f93e 1dbe 78bf 91be 7a09 e13b
000000e0: 01ef 43be 259a 883d 3e36 3ebe 10b1 5bbe
000000f0: 6918 80bb ab82 2dbc ce20 153e 566e 9d3e
00000100: 4e4e 9a3d 0d8c fbbd 45b1 b53b efac a1bd
00000110: 2f73 513d db67 cabe 3942 80be c3b8 c03c
00000120: 5ba2 423e dcae afbe 2218 52be 9791 0a3e
00000130: 8abc a8bd 5294 373e 21d0 b93e 3b85 a73c
00000140: f538 39bc 5911 953d 0a67 a43b 9d49 13be
00000150: f069 7f3a 6453 0cbf af79 96be 5ffd c7be
00000160: 02f1 c6bd 7a47 593e a93e b9be 65e4 cbbc
00000170: 1d86 d4bc 1ea6 9c3d fb79 f53d ab61 3b3d
00000180: 9552 4c3e 1276 43bd 1293 0b3e 23c5 21bc
00000190: 3223 bfbc 1f5c 23be fb8c 45be 54f1 e0be
000001a0: e795 1fbe 8efa 803e 3fb2 2abe 7ed3 cbbb
000001b0: c091 a93c 7064 a3be 0c6e b5be e854 2fbe
000001c0: cfe4 fcbd 5d3b 11be 914f 55be cbe2 8abe
000001d0: bf87 5c3e a9fc 93be 39e9 c8bb 4757 28be
000001e0: b5a3 a6bd 6648 d0be 34d0 30bb 986b 3abe
000001f0: 8f65 e4bd 6d96 0dbb f963 64be 4e9a 64be
0.027629158 0.029994713 -0.07006151 0.0075458386 -0.010654299 -0.35914347 -0.16204748 0.0024788233
0.017726038 -0.12199424 -0.072608605 0.16967516 -0.34182563 -0.07070615 0.09710858 -0.17655006
-0.16801044 0.014341024 -0.24052116 -0.121211514 0.01550502 0.055648465 -0.0659216 0.0025185854
-0.16390254 -0.0483528 -0.49908134 -0.11666908 -0.0018336851 -0.27545333 0.15969977 -0.39897045
-0.18109314 -0.14582191 -0.09790012 -0.3282054 -0.11192403 -0.12772968 -0.2294597 -0.17203026
0.14065643 -0.056712914 -0.09544963 0.0025291482 -0.16117872 -0.26552874 -0.32044172 0.0046750735
-0.21872136 0.0038836915 -0.029782888 -0.24456152 -0.15826973 -0.15356053 -0.28466392 0.006867585
-0.19134142 0.06670026 -0.18575379 -0.21454263 -0.00390916 -0.010590236 0.14563295 0.30748242
0.07534467 -0.12282572 0.005544814 -0.078943126 0.05113524 -0.3953236 -0.25050524 0.023525601
0.19007246 -0.34313095 -0.20517018 0.135321 -0.08239086 0.17927673 0.36291602 0.020449271
-0.0113050835 0.072786994 0.005017166 -0.1438355 0.0009743264 -0.54814744 -0.29389712 -0.39060494
-0.09713937 0.21218672 -0.36180618 -0.02488918 -0.025942856 0.07648872 0.119861566 0.04574744
0.19953378 -0.047720022 0.13630322 -0.009873661 -0.023332212 -0.1595311 -0.19292061 -0.4393412
-0.15584527 0.25191158 -0.16669558 -0.00622028 0.020699382 -0.31912565 -0.35435522 -0.17122233
-0.12348329 -0.14182802 -0.20831133 -0.27126154 0.21536158 -0.28903702 -0.006131318 -0.16439544
-0.081366934 -0.40680236 -0.0026979567 -0.18205106 -0.11152183 -0.0021604553 -0.22303762 -0.22324488

batch_norm2.running_var f4 [128]
00000000: 3ffb 2f3d 1d15 123d 3d19 853d 72a9 023d
00000010: fb5a 163e d318 8d3d 0122 f13c 1034 b93d
00000020: e662 173d bbaf bd3d b227 603d fcbf b73d
00000030: ee4e 293d f8b1 9f3d d9ac 5f3d d5cc 433d
00000040: a797 e73d 4c21 3a3d c063 3a3d 02eb 253e
00000050: b932 703d fec4 683d 60db 9f3c e605 443d
00000060: 7b7e b43d 143b 4f3d 2527 c33c cf08 913d
00000070: ca06 e33d 322c 8e3d ea65 4e3d 1c81 893e
00000080: 530f 8e3d d82b dd3c 9d3e 033d 6e98 443d
00000090: a720 5c3d 22e2 b13d a386 303d ed66 f63c
000000a0: 2682 6c3d 3992 1c3d 6f88 413d bd75 403d
000000b0: d4b2 263d 362f ed3d 68df 9f3d 230e b63d
000000c0: e848 e23c 4125 bb3c 6ad7 c83d 7846 973d
000000d0: 73e5 8c3c c3aa d43d af16 b33d e3c5 793d
000000e0: 7bba 7e3d ac69 393d 65a7 dc3c 9661 b83c
000000f0: 0d3c 143d 5f95 153d e2fa 003d 86f4 c93d
00000100: 9ebf cc3c b646 b03d f8c0 583d 2395 083e
00000110: b7cd d23d 78bd b93d 1600 ad3d 9ba5 483d
00000120: 1be9 403d 56fd 803d c3e3 643d a880 5b3d
00000130: 57f5 ba3c 7b5d 743d 821a 013d baf1 a33d
00000140: 7b03 a23c e1c5 423d e297 c53c 7ad4 a93d
00000150: fd48 273d 9844 823d 9adb d33d 4b30 523d
00000160: 8c53 243e 8ad7 823d f0e5 bc3c 5b8f 6c3d
00000170: 60e4 893d 23a2 923d d5c2 403d 582d 683d
00000180: 2a1f a73d 4818 1c3d 7f4d 7a3e 5454 863d
00000190: eaef 4e3d 2dc0 a23d 17d2 e43d 6b34 373d
000001a0: 73ef 9a3d 51c2 613d 7db3 993d c384 823d
000001b0: 0b29 bb3d 21c2 af3d 367c 0a3d 0ad7 653d
000001c0: e243 913d 474e 0a3d 2195 a03d 0f0a c53d
000001d0: 7540 9d3d 9174 943d 1783 9e3c fb2a 633d
000001e0: b5b9 223d c7b5 3a3d ce29 683d 7b90 c53d
000001f0: ee2f ba3d fc41 cf3c 4598 c83c 00aa 3e3d
0.042964216 0.035664666 0.064989544 0.031899877 0.14683144 0.068895005 0.02943516 0.09043133
0.03695955 0.092620336 0.054725356 0.08972165 0.04133504 0.07797617 0.0546082 0.047802765
0.11308222 0.04544191 0.045505285 0.1620293 0.058642123 0.05682849 0.019513786 0.047857188
0.08813187 0.05059345 0.023822377 0.07081758 0.11085279 0.06942023 0.05039016 0.26856315
0.069365166 0.026998445 0.032042135 0.04799693 0.053742077 0.086857095 0.04309715 0.030078376
0.057741307 0.038225386 0.047249254 0.046987284 0.040697888 0.115812704 0.07806283 0.08889415
0.027622655 0.022844912 0.09806712 0.07386488 0.017199254 0.10384133 0.08744561 0.060979735
0.06218956 0.045266792 0.026935289 0.02250747 0.03619008 0.036519405 0.03148926 0.09861092
0.024993714 0.08607237 0.052918404 0.13338141 0.10293143 0.090693414 0.08447282 0.04898606
0.047097307 0.0629832 0.055881273 0.053589493 0.022822065 0.059659462 0.03151942 0.0800509
0.01977705 0.047551993 0.024120275 0.0829248 0.04084109 0.063607395 0.1034462 0.051315587
0.16047496 0.06388767 0.023058861 0.057753902 0.06733012 0.071598314 0.047060806 0.05668387
0.08160241 0.038109094 0.24443625 0.06559053 0.05052177 0.07946811 0.11172884 0.044727724
0.075652026 0.055116955 0.07504938 0.063729785 0.09138688 0.08581949 0.033809863 0.05611328
0.07093026 0.033766057 0.07840944 0.09621059 0.0767831 0.07248796 0.019349618 0.05546091
0.039727885 0.045583513 0.056680493 0.09646698 0.09091173 0.025300018 0.02448667 0.046548843

dense3.weight f4 [128, 128]
00000000: 7652 393d e5b9 e2bd 0e5d 0cbe 7c86 123b
00000010: 3410 ccbc 08fe 97bd f2e2 2cbd 6884 b0ba
00000020: 1e87 d9bc ce31 9dbc 5368 923d 0fe5 0f3d
00000030: 2d78 6b3d 47b0 de3d 7a40 503d ba29 73bd
00000040: 2894 a3ba c245 41be 5514 723d 72cd a0bd
00000050: e17e c23d 9cf9 4f3d 21ac 07bb edbc 2a3c
00000060: 87b4 873c a1e7 49bd aebf 173e 09d5 0a3d
00000070: a1dc 10bc 1fa9 b03d 6765 903d b6fc 0e3d
00000080: 8d43 823c 0966 943d adaa 02bc c515 32bc
00000090: 794e d3bd 2430 a83d 7880 05be 5c8f 88bc
000000a0: 16d5 92bc bdff 0e3c 007f 2d3d 5fb4 c1bd
000000b0: dbc3 593d 58e5 6bbd 37c4 c6bc 6b35 c4bc
000000c0: d900 a3bd 8905 933d c8a6 1f3c e928 a3bb
000000d0: c4e8 d13d d65d 75bd 17fb 83bd 1b1b a9bd
000000e0: 7de5 39bd e70b dcbd b738 023e 9050 1d3e
000000f0: 69e7 7c3d 86ce b63d 5203 023e e831 7abc
00000100: d67a fbbd c446 be3c 2d06 d3ba 4bd6 b03b
00000110: deb7 613d 8796 46bc 091b 35bd 45ba d7bc
00000120: fb7f bbbd e416 81bc df06 7bbd a577 963d
00000130: 0e89 6c3d afbd 5abd 5bef 92bd ca1e d53d
00000140: b27e 093e de43 22be bded dc3d 6d46 a83d
00000150: c8b1 e6bc 6e5f 243d 0c5c 6bbc 0b17 0abe
00000160: d9fd acbb 6013 bb3d 42c3 f0bc 556b 5ebd
00000170: ce05 be3c 6879 aabd d926 c7bc 4baa 593e
00000180: 97e0 a43d e269 3f3d 4f3e babd 5fac 5abb
00000190: fca9 05be deca e63d b01e 493a 7334 87bd
000001a0: 0ffc df3c a314 6b3b 1e85 d4bd dd51 9dbd
000001b0: 5c64 fdbd 4733 3c3b 7705 ad3d d754 273d
000001c0: 1cac 203c 7354 323c d144 953d a990 aabc
000001d0: 4572 f53d ea19 a0bd 9e2a d1bd 6bf9 8f3d
000001e0: 5cb3 3bbd 4794 203e 22d2 fabb 624a 363d
000001f0: 22ae cebb 86da 233e 7ad1 81be 8845 69bd
00000200: 9716 3f3d 6f17 8b3c c0ee 07bd f97c 68bb
00000210: d614 3d3d 09a4 d63b 3873 11bc ebf9 64bd
00000220: 4c27 983c bc75 30bd e7c8 a139 bab6 803d
00000230: c77c 10bd 3e72 103d a573 82bd 568a 21bd
00000240: 861d 933c 67c2 673d 879a 8abc 2ba7 aabd
00000250: 1897 05bd 293e 79ba 5ec2 3c3d af98 8f3d
00000260: af31 993d 799e 18be 374b cf3d 3d56 543d
00000270: 255c 13bd 4bd3 d6bd 2ad6 0ebd 3a6e 14bd
00000280: 0bfd eb3c 8442 8bbd 2be5 ce3c 19d0 2e3d
00000290: 9a79 d53c 7c56 8bbc 67a0 023b 54e0 c4ba
000002a0: a27e 773d b51d 253d 9553 f0bc 3d6d cd3d
000002b0: 0305 cbbd 49df 683d db1b 6bbd b30e bd3d
000002c0: 9406 90bc 394f e9bd 8719 873b f4bb 43bd
000002d0: 1525 f4bd e616 68bb 3917 d0b9 1c22 4ebd
000002e0: 743c 483d f461 9abd 2879 383e 4958 773d
000002f0: 94a9 cb3d 749d 64bd c48c 2f3d d2fd 22bd
00000300: becb 9a3d 4ccc 9c3c b87b 04be 927c 2c3c
00000310: 41ad 703b f54c a53c e6e5 01bd ce29 3f3d
00000320: 726e 783c 02e8 07bd 3245 8a3d ef51 9abb
00000330: 0fda 233d a848 5f3d 071b b1bd 3275 16be
00000340: b203 e2bd ca6e 4fbc 0d49 e23d 0d5f ecbd
00000350: 4f15 d7bd cb2e 7a3d 7846 8a3b a7e0 7ebd
00000360: db47 493d 1c4a 51b9 c666 3c3c 96ac 22be
00000370: 7892 813c bc82 a0bc c0b6 9fbd d073 203d
00000380: 7aed a33d e601 f83c c75c 9e3c 4ed1 3cbd
00000390: f55e 3cbe bb14 8e3d 5433 aebd 3efa 2c3e
000003a0: 6f0e 673b 2645 ccbd 57ff c03d d574 873d
000003b0: 1569 bb3d 053a 9f3d cd6c a7bd 8d6f ecbc
000003c0: 5a19 ea3d af79 c93d db4a 6cbc c617 45bd
000003d0: c084 3abd 7bf4 2b3c 6a2e 9e3e 3839 cebd
000003e0: cf25 c33a 79c2 14bd 0445 53bd 1219 023d
000003f0: b222 ad3d 666f b93c 6706 673d e1f9 4fbd
0.045244657 -0.11070613 -0.13707373 0.002235799 -0.02491007 -0.074214995 -0.04220862 -0.0013467195
-0.026553687 -0.019188788 0.071488045 0.035130557 0.057487655 0.10873466 0.05084274 -0.059365965
-0.0012480067 -0.18874267 0.05910142 -0.078516856 0.094968565 0.050775155 -0.0020701962 0.01042102
0.016565574 -0.049293164 0.14819214 0.033894572 -0.0088416645 0.08626007 0.07050591 0.034908973
0.015901351 0.07246024 -0.007975263 -0.010869448 -0.10317702 0.08212307 -0.13037288 -0.016669922
-0.017923873 0.008727965 0.042357445 -0.09458231 0.053165298 -0.057591766 -0.024263484 -0.023951253
-0.07959146 0.0717879 0.009744354 -0.004979242 0.10249475 -0.059903942 -0.06444376 -0.08257123
-0.045384873 -0.10744458 0.12716947 0.15362763 0.061744127 0.0892611 0.12696579 -0.015270688
-0.122792885 0.023227103 -0.0016099863 0.0053966395 0.05510699 -0.012120849 -0.044215236 -0.026333937
-0.0915527 -0.015757985 -0.06128585 0.07347039 0.057747893 -0.053403553 -0.0717456 0.10406263
0.13427237 -0.15846202 0.107875325 0.08216558 -0.028160945 0.04013007 -0.014365207 -0.13485353
-0.0052792844 0.09134555 -0.029389981 -0.05430158 0.023196127 -0.08323938 -0.024310516 0.21256368
0.080506496 0.046731837 -0.09093916 -0.0033366901 -0.13053125 0.112691626 0.00076721143 -0.06601801
0.02734187 0.0035870455 -0.103769526 -0.0768163 -0.12372658 0.0028717087 0.08448308 0.040852394
0.009806659 0.010884392 0.07288516 -0.020820932 0.11984686 -0.07817443 -0.10213207 0.070299946
-0.045825347 0.15681563 -0.0076544443 0.04450453 -0.0063073793 0.16001329 -0.2535513 -0.056951076
0.046652403 0.016978947 -0.033186674 -0.003547488 0.04616245 0.0065503162 -0.008877568 -0.055902403
0.018573426 -0.04308103 0.00030857997 0.06284852 -0.035275247 0.0352652 -0.06369714 -0.039438568
0.017958414 0.05658188 -0.016919388 -0.08332666 -0.032614797 -0.0009507859 0.0460838 0.07011544
0.074801795 -0.14904203 0.10121768 0.051840056 -0.035976548 -0.1048952 -0.03487221 -0.036237933
0.028807184 -0.06799796 0.02525576 0.042678926 0.02605896 -0.017009012 0.0019932033 -0.0015020468
0.0604235 0.040311534 -0.02933673 0.10030601 -0.09913065 0.056853566 -0.057399612 0.09231319
-0.017581262 -0.11392064 0.004122916 -0.047786668 -0.11921135 -0.003541404 -0.00039690154 -0.050325498
0.048885778 -0.07538214 0.18014967 0.06038693 0.09944454 -0.05581422 0.042858854 -0.039792843
0.07558392 0.019140385 -0.1293782 0.010527747 0.003672436 0.020178298 -0.03171339 0.046670727
0.015163051 -0.033180244 0.06751479 -0.0047094743 0.04000288 0.05451265 -0.08647733 -0.14693144
-0.11035861 -0.0126606915 0.110490896 -0.11541567 -0.10502111 0.06107978 0.0042198263 -0.062225964
0.049140792 -0.00019959401 0.0114991125 -0.15886149 0.015816912 -0.019593589 -0.07798529 0.039172947
0.080042794 0.030274343 0.019331349 -0.046098046 -0.18395598 0.06937548 -0.08505884 0.16892335
0.0035256406 -0.099741265 0.09423702 0.06614081 0.09150902 0.07774738 -0.08175049 -0.028861785
0.11430617 0.098376624 -0.014422144 -0.048118375 -0.045536757 0.0104953 0.30894786 -0.10069507
0.0014888587 -0.036318276 -0.05157949 0.03176219 0.08453883 0.022636127 0.05640259 -0.050775412
